hybridRS/RESTApi/recommenderapi/mlmodel/checkpoints/recquery.pt (torch, 8082 bytes, 6 tensors)

encoders.0.linear.weight f4 [20, 22]
000000 e0 63 90 be 5f 6e 98 be 20 90 83 be 15 ce 5f 3e
       -0.282012 -0.29771706 -0.25695896 0.21855958
000010 5e 7e 81 be 4d f4 9f be 2c 64 11 bd 46 c8 87 be
       -0.25291723 -0.31241074 -0.035495922 -0.26519984
000020 2f 59 8f be c9 b4 94 be c3 aa 44 be cc 4b 8b 3e
       -0.2799773 -0.29044178 -0.19205765 0.27206266
000030 2e f0 be 3e 51 83 7a 3e e4 ef 18 3f 0d f6 73 be
       0.37292618 0.24464156 0.59741044 -0.2382433
000040 bd b2 53 be 66 53 82 be 78 1b f2 3e 96 6a 98 be
       -0.20673652 -0.25454253 0.47286582 -0.2976882
000050 17 97 e4 bc 4e 4f 82 be f0 4a 59 3e e7 60 d9 3e
       -0.027904077 -0.2545113 0.21219993 0.42456743
000060 cf 96 c4 3e c6 e8 c0 3c ce b2 99 3e e7 b7 a6 be
       0.38396308 0.023548495 0.3001923 -0.3256218
000070 4f 7f 96 be 6a b8 af 3e ca 5f ec 3e a1 c8 25 3e
       -0.29394004 0.34320384 0.4616683 0.16189815
000080 aa e6 0c be 20 b5 94 be 22 73 91 be 6d 38 96 bd
       -0.13759866 -0.29044437 -0.28408152 -0.07334981
000090 3b 4f a5 be 86 6e 0b 3f 8e a6 28 3e 19 28 9e be
       -0.3228701 0.5446552 0.16469786 -0.30889967
0000a0 04 be 96 be ed 48 96 be 9f f6 9c be d5 7a f7 3e
       -0.29441845 -0.29352513 -0.30656907 0.483359
0000b0 d7 4b db bd fd a7 0d be 47 4c 90 bd 08 f9 bf bd
       -0.10707825 -0.13833614 -0.07045799 -0.09373671
0000c0 17 74 9f bd 44 55 22 3e 0e 87 9f bd 35 c8 44 3f
       -0.07785814 0.15852839 -0.077894315 0.7686799
0000d0 66 e3 25 be 72 ae 94 bd 77 11 39 be 0f c3 30 be
       -0.16200027 -0.07259835 -0.18073069 -0.17261909
0000e0 5a 65 b3 bd 26 38 de 3d 66 e3 d0 bc 68 f6 0c be
       -0.08759566 0.10850553 -0.025499057 -0.13765872
0000f0 34 a3 51 bd 67 02 a7 bd 71 a8 00 be cd 72 92 bd
       -0.051181033 -0.08154755 -0.12564255 -0.07150803
000100 44 b5 93 bd 64 09 a8 bd 7d 15 32 be f5 8e ff bd
       -0.07212308 -0.08204916 -0.1739101 -0.12478439
000110 96 f5 b3 3e 39 4e cf 3c f7 bb 15 be 55 b7 35 be
       0.35148305 0.025305854 -0.14622484 -0.17745717
000120 38 ec 9b 3d 1f 9f 51 be 69 2e a0 3d 9f d3 3c 3f
       0.076134145 -0.20470856 0.07821352 0.7376041
000130 fb 75 af 3b 49 c1 c5 bd 6b f5 89 bd 7d af 53 bd
       0.0053546405 -0.09656007 -0.06736263 -0.05168103
000140 f2 9b b0 bd 66 0c 80 bd 0b 03 b6 3e 19 7c 87 bd
       -0.08623494 -0.06252365 0.35549197 -0.066154666
000150 77 d0 5d bd 85 17 3f 3e 4f 70 83 bd 4d 74 47 be
       -0.054153886 0.18661316 -0.064179055 -0.19477959
000160 41 27 e8 3e b3 9d 50 be 19 77 00 be 95 ee a9 3e
       0.45342448 -0.20372657 -0.12545432 0.33189836
000170 c9 81 59 be 1f 34 26 be 7a f1 85 bd 4d d6 28 be
       -0.21240915 -0.1623082 -0.065401986 -0.16488
000180 96 9c 18 3d 2e b5 40 be 73 33 f5 bd 70 f3 ef bc
       0.037258707 -0.18819115 -0.11972704 -0.029290885
000190 e2 27 53 3e 41 d5 e6 3e c2 c0 d6 3e fc 83 10 be
       0.20620683 0.45084575 0.41943938 -0.14112848
0001a0 85 77 66 be 49 61 83 3e a4 65 da bd b1 6b 64 3c
       -0.2250653 0.2566016 -0.10663918 0.013941691
0001b0 b8 62 2a 3d e3 c8 6e bd f4 98 97 bd c4 02 b5 bd
       0.04159805 -0.05829705 -0.0740222 -0.08838418
0001c0 61 34 95 3e 2c 37 1f be 55 e5 b3 bd 81 5e 5d 3e
       0.29141524 -0.1554839 -0.08783976 0.21618082
0001d0 55 34 3b be b1 cd 33 3f d7 29 aa 3d 46 f8 d4 bd
       -0.18281682 0.70235735 0.083087616 -0.10398917
0001e0 ec 0e 9c 3d c5 d8 51 be 50 a9 1a 3d 15 31 72 bb
       0.076200336 -0.20492847 0.037759125 -0.0036955525
0001f0 f6 0d 3a be 10 cd 27 3e 43 4e ac bd 8f 8e 2c 3d
       -0.18169388 0.16386819 -0.08413365 0.042128142
000200 cd 4d a3 bc a0 6a 10 be 8f a6 c3 bd 7a f3 5a 3e
       -0.01993456 -0.14103174 -0.09553253 0.21381941
000210 19 f0 42 be 08 21 14 be 37 81 1b be e3 fa 83 3d
       -0.19036902 -0.14465725 -0.1518601 0.06444337
000220 97 1b 81 be 89 b4 55 be b4 1d 35 be 91 5a 2d be
       -0.25216362 -0.2086965 -0.17687112 -0.1692908
000230 1a 59 1a 3f 3b 00 35 be 45 58 da bd 19 ae ae bd
       0.6029221 -0.17675869 -0.10661367 -0.085293
000240 85 b8 67 be 5a 33 43 be cf f4 81 be 22 d4 62 be
       -0.22628982 -0.19062558 -0.25382087 -0.22151235
000250 1a f4 0d 3e e7 6b 51 be 38 ac 47 be 5b 70 48 be
       0.13862649 -0.20451318 -0.1949929 -0.1957411
000260 5e 64 8b 3e a4 12 0f 3f b4 26 d6 bd 8b b8 4f be
       0.27225012 0.5588782 -0.10456601 -0.20285241
000270 0d 2c 64 be 9d 54 6b be b8 29 22 3f c6 e7 e5 bd
       -0.22282429 -0.22981496 0.6334491 -0.11225848
000280 0f 67 88 3e 0b a2 7e be e4 57 11 be 81 ba 62 be
       0.26641127 -0.24866502 -0.14193684 -0.22141458
000290 55 94 87 3c 47 1f 76 be f4 ea 8f be 0b c6 6a be
       0.016550222 -0.24035369 -0.28108943 -0.2292711
0002a0 f4 83 0e bd b7 b3 8a 3f 7c df 13 be c2 37 33 3e
       -0.03479381 1.0836095 -0.14440721 0.17501739
0002b0 bc 31 72 be 84 93 15 3e d6 25 f4 bd 59 fb 53 be
       -0.23651785 0.14607054 -0.11921279 -0.2070135
0002c0 32 bd 51 be 6d a3 91 bd 56 d1 f9 bd 51 f8 a4 bd
       -0.20482329 -0.07111249 -0.12198131 -0.08055175
0002d0 5c 1f 37 be 0d ab 99 bd 8d 64 1c 3f c8 b4 83 bd
       -0.17883056 -0.075033285 0.6109093 -0.06430966
0002e0 8f c1 c1 bd dd b9 83 bd b7 ad 34 be 0d fc 49 be
       -0.094607465 -0.06431935 -0.17644392 -0.19725056
0002f0 0c 47 48 bd 6c 0d 47 bd f2 42 f5 bd 55 a6 90 bd
       -0.04889588 -0.048596784 -0.119756594 -0.07062975
000300 c3 2a f5 bd 8b 23 3d be a9 73 e6 bd 22 29 06 3f
       -0.11971047 -0.1847059 -0.11252529 0.52406514
000310 38 8b c1 bd e0 6a 18 be a1 f5 bb bd 2d e2 a9 bb
       -0.09450382 -0.1488452 -0.09177709 -0.005184433
000320 d3 01 40 be 3d 2c e3 bd b4 b4 45 bd 4a 23 b5 bd
       -0.18750696 -0.11092422 -0.048268035 -0.088446215
000330 24 76 0e bd 30 aa b0 bd 47 d6 2b be 25 0b 0b 3e
       -0.034780636 -0.08626211 -0.16780959 0.1357847
000340 90 8c 1a bd f0 1f 11 3e 2a c9 22 be 9b 3b 39 be
       -0.037731707 0.1417234 -0.1589705 -0.18089144
000350 7e b4 eb 3b 0f 80 79 bd 20 9e be bc 2c bb 15 bd
       0.007193147 -0.06091314 -0.02326876 -0.036555454
000360 9c bc fd 3c 02 f5 26 3e a1 b6 29 be b4 e8 86 3d
       0.030973725 0.163044 -0.16573574 0.06587353
000370 6d cb e6 bd 48 f0 d9 3e e0 57 18 3f 7f 96 ad 3e
       -0.11269269 0.42566133 0.59509087 0.33903882
000380 f4 4c 40 be c9 6f 54 be 5a 12 9c be 2c 08 0f 3d
       -0.18779355 -0.20745768 -0.3048275 0.034919903
000390 b9 e9 49 be e1 cc 50 be 8f 86 54 be f8 16 37 be
       -0.19718064 -0.20390655 -0.20754455 -0.17879856
0003a0 19 1c 6c be 1f bf f4 3e 8e e4 63 be b2 45 21 be
       -0.23057593 0.47802064 -0.22255155 -0.15749243
0003b0 8b 53 62 be b2 57 46 be 4a 7a 3c be 78 5d 75 be
       -0.22102182 -0.1936939 -0.18406025 -0.23961437
0003c0 c2 cb 45 be 7e a5 8c be 69 27 83 be 47 63 97 3d
       -0.19316009 -0.2747001 -0.25616005 0.073919825
0003d0 74 88 c2 3c 8b 48 72 be e9 fe 4e be 05 71 1a be
       0.023746707 -0.23660485 -0.20214428 -0.15082176
0003e0 a6 8c 59 3e 00 90 83 be a7 bf 0f 3d 35 64 85 be
       0.2124506 -0.256958 0.035094883 -0.26053014
0003f0 ad 9e af bd 60 7d 2b 3e 8e e9 ad 3e 93 68 8b be
       -0.08575187 0.16747046 0.3396725 -0.2722822

encoders.0.linear.bias f4 [20]
000000 06 f7 24 3e 74 23 7e 3e 1c 2f 78 bd 00 5e f3 bd
       0.16109857 0.24818212 -0.060591802 -0.118831635
000010 8a 60 c1 bd 4e c5 cb bd f7 dc 4c 3d 65 eb 9a 3d
       -0.094422415 -0.09949742 0.050015416 0.07564429
000020 b3 70 04 3d e0 d2 3f be f6 02 5f 3d 92 52 e8 3d
       0.03233404 -0.18732786 0.054446183 0.11343874
000030 0e 4b fb 3d 9c c9 08 3e 44 18 33 bd 19 50 38 be
       0.12270175 0.13358158 -0.043724313 -0.17999305
000040 e4 87 29 be b1 ab 8f bd 7d 35 49 be f7 0a 0d be
       -0.16555744 -0.070151694 -0.1964931 -0.13773714

decoder.linear.weight f4 [22, 20]
000000 b6 36 79 be a2 e4 d5 bd 53 38 91 be 73 eb 0b bf
       -0.24337277 -0.10443999 -0.28363284 -0.5465614
000010 f4 80 98 3d 84 cd b7 bd ee f3 49 bf 07 10 d7 3e
       0.07446471 -0.08974746 -0.7888783 0.42004415
000020 09 2a ad be 4a 42 04 bf 0d b5 8f 3e fa 42 22 3f
       -0.33821133 -0.5166365 0.28067818 0.6338345
000030 a2 5c 2b 3d 93 b5 95 bf ed 79 50 3e 6a d3 86 bd
       0.04183639 -1.1696037 0.20359011 -0.06583293
000040 03 2c 2f 3e d2 92 0a 3d 23 f7 ef 3d 5a 65 b2 bd
       0.17106633 0.033831425 0.117170595 -0.087107375
000050 54 32 86 3d 5e 2a dd 3b e4 95 af be 84 6f bf 3c
       0.06552568 0.0067494353 -0.34294045 0.023368604
000060 6c b5 b1 3c 93 fa d2 3d 94 f6 ab 3d 2a 88 67 bf
       0.021692954 0.103016995 0.083966404 -0.90442145
000070 52 31 16 bd 81 e5 8a be a2 c1 ea be 3e d5 f3 bb
       -0.03666813 -0.27128223 -0.45850855 -0.007441192
000080 7b 78 95 3e 68 7b 58 3e 64 17 79 3e 24 fd 5d bd
       0.29193482 0.21140826 0.24325329 -0.05419649
000090 10 4b ab be 80 98 0a be f4 4e 59 bd 6e 9c cf 3d
       -0.33455706 -0.13534737 -0.05305381 0.101372585
0000a0 5c be cc bd b9 58 8d be 69 e8 94 be 15 ef e0 bd
       -0.09997246 -0.27606753 -0.29083565 -0.10983101
0000b0 fc a8 56 3d e5 e6 41 bd c6 e8 b1 3e 2f e7 ec be
       0.05240725 -0.04733934 0.34747905 -0.4627013
0000c0 91 9e a0 be c7 4d 8a be 76 9c 03 bf cf d7 3b be
       -0.31370977 -0.27012464 -0.51410615 -0.18344043
0000d0 f2 54 9d 3e 7e 9f ea bd 6c 6a a7 3e 36 9f a5 bd
       0.3072887 -0.11456202 0.3269838 -0.08087008
0000e0 ee 7b 73 be 11 da a4 3d 5d 4c 91 3d 38 30 99 3e
       -0.23777744 0.08049405 0.07094643 0.299196
0000f0 f5 55 73 be f3 e7 9e bd ae 24 e9 be 09 8b 68 3e
       -0.23763259 -0.077590846 -0.45535797 0.22709288
000100 85 5b 40 3d 11 39 c7 3d 8b c4 7a be 52 22 08 3e
       0.04696228 0.097276814 -0.24489038 0.13294342
000110 be 97 03 bf 02 34 de 3d 24 08 7e 3e 34 1c f5 be
       -0.51403415 0.108497635 0.24807793 -0.4787308
000120 c3 d1 19 3e f3 24 b2 3e ad d7 a2 3e 5c 45 2b 3d
       0.15021424 0.34793815 0.31805173 0.041814193
000130 07 68 7e bf ab 73 42 3d ac af 31 bb a4 a1 15 bf
       -0.99377483 0.04747359 -0.0027112765 -0.5844977
000140 37 97 00 3e 68 b7 9d 3e ab f6 37 bc 4c 6f 60 be
       0.12557684 0.3080399 -0.011228244 -0.21917456
000150 e9 6a 79 3d dd c3 e4 3e d9 aa 43 bf 20 6d 92 bc
       0.060892973 0.44680682 -0.7643257 -0.0178743
000160 a3 1d 7b be dd fc 97 3e bc fb 8a be 29 95 37 bf
       -0.24523024 0.29685107 -0.27145183 -0.71711975
000170 86 32 81 3e 88 a2 fd be 79 69 b1 be 09 64 cf 3d
       0.2523386 -0.49538064 -0.34650782 0.10126502
000180 3c 87 b8 bd 19 53 c3 3d 1f 4b 7e 3c 79 53 b2 3e
       -0.09010169 0.09537334 0.01552084 0.3482931
000190 71 e5 cf 3b 77 a3 45 3e e2 9b 24 be 3e 0b d3 bd
       0.00634449 0.19300638 -0.1607509 -0.10304879
0001a0 ce fc fe 3d 84 07 25 bf 03 05 e0 be f7 1d 41 3e
       0.124505624 -0.6446459 -0.43753824 0.18859087
0001b0 65 9d 9f bd 89 6c 31 be 1f 8a d0 bc c9 d3 4b 3d
       -0.077936925 -0.17326559 -0.025456486 0.04976252
0001c0 dd 38 5d 3e 6e 44 da 3e 7c 4b 31 bf 98 1f 3e be
       0.21603723 0.42630333 -0.69255805 -0.1856674
0001d0 69 46 ab 3d 4d 26 a0 bd a6 25 3b 3e f4 81 05 3f
       0.08363039 -0.07819805 0.1827608 0.5215142
0001e0 55 78 05 be a4 cd 05 3e 6c 2f 0b 3f 0c fd e9 3d
       -0.13034184 0.13066727 0.54369235 0.11425218
0001f0 eb 2c 23 be de 12 25 bf c2 40 cf bd 19 6a 65 be
       -0.15935104 -0.64481914 -0.101197734 -0.22403754
000200 18 a5 54 bd d5 d4 c1 bd 36 49 8e bc 6b eb c6 bd
       -0.05191526 -0.094644226 -0.017368894 -0.09712871
000210 38 d6 7b be ef 78 47 be d9 30 d0 3e 45 1c bb bd
       -0.24593437 -0.19479726 0.40662268 -0.09136251
000220 ae 0a 5c 3d 89 a3 c3 bd 9b fe 4c be 56 4a 58 be
       0.053721122 -0.09552676 -0.20019 -0.21122107
000230 ab e7 6c be 10 a0 ac 3c 8c c5 c2 bc d3 63 ce bd
       -0.2313525 0.021072417 -0.023775838 -0.10077634
000240 60 4a 51 3e 12 9b 50 be 00 8a 7a 3e 27 ea 8f 3e
       0.20438528 -0.20371655 0.24466705 0.28108332
000250 14 53 9a be e6 bb 50 bd e5 9c e6 bd 3f 31 3f be
       -0.3014151 -0.050960444 -0.11260394 -0.1867113
000260 b8 6d b2 3e 98 52 bc be 70 c1 97 3d 66 2e 91 be
       0.34849334 -0.36781764 0.07409942 -0.28355712
000270 74 ad 15 be 29 f2 2b be a8 83 da bc 29 4b 73 3e
       -0.14616948 -0.16791596 -0.026674107 0.2375914
000280 be 35 cd bd 84 ef 74 bd d8 27 2a 3e 60 78 1c 3e
       -0.10020016 -0.059798732 0.16616762 0.15280294
000290 39 71 3c 3d f3 8f 9f 3e 2b a8 82 3c 56 3a d1 3e
       0.046006415 0.31164512 0.01594933 0.4086482
0002a0 83 23 72 be 34 b6 9f bd 82 33 21 bf f9 48 6a 3e
       -0.23646359 -0.07798424 -0.6296922 0.228794
0002b0 d7 f0 ee ba 8f 48 8d 3e 15 9a 28 bf 31 c4 55 bd
       -0.0018229735 0.2759442 -0.6586011 -0.052189056
0002c0 90 d7 99 be d3 2f 57 be 29 0f 4c 3d 5d 83 ea be
       -0.30047274 -0.21014337 0.049819145 -0.45803347
0002d0 8b 5b 06 be 12 a5 24 bd bc 58 01 bf 97 d1 a0 be
       -0.13120858 -0.040196486 -0.5052602 -0.31409904
0002e0 12 d3 5a be ae 3f dd 3d ee b4 83 be 7f 39 39 bf
       -0.2136958 0.108031616 -0.25723976 -0.7235336
0002f0 74 1f 92 be 17 f0 19 bf c9 c3 8b be c7 09 c5 3e
       -0.28539622 -0.60131973 -0.2729781 0.38484022
000300 a0 36 c4 bd 06 45 bd be b4 da cc 3e cb 49 bb 3d
       -0.095807314 -0.36966723 0.40010607 0.09144934
000310 75 71 cc bd 4f 5a de 3d 2b 2d d8 bd 61 c2 07 3d
       -0.09982578 0.10857069 -0.1055549 0.03314436
000320 d9 c1 82 be ec ac 89 bc 13 95 71 bd 89 98 c7 bb
       -0.2553852 -0.016806088 -0.05898006 -0.0060911817
000330 b0 e9 30 3e 78 21 95 bd cc 94 2c be 7b 33 53 3d
       0.17276645 -0.07281774 -0.16853637 0.051562767
000340 73 3e f9 bc a4 80 1a ba 63 a4 51 bd bb 9e a1 3b
       -0.030425286 -0.0005893803 -0.051182162 0.004932252
000350 87 e4 06 3e 13 74 23 be a6 8b 79 bd 31 0b 7e be
       0.13173114 -0.15962248 -0.060924195 -0.24808957
000360 37 8b 62 be e0 02 8e 3d ca 65 6e 3e e0 4e 63 bc
       -0.22123419 0.06934142 0.23281017 -0.013873786
000370 e0 1b 82 be a0 fd 1d be 7a f0 02 3d 3a 81 8d be
       -0.25411892 -0.15428782 0.031967618 -0.27637655
000380 57 08 28 be c4 77 85 be f2 f8 46 be 80 66 02 bd
       -0.16409431 -0.26067936 -0.19430903 -0.031836033
000390 70 7a a3 bd 58 e1 46 bd 85 f6 49 bb 5e 5c b7 bd
       -0.079823375 -0.04855475 -0.0030817103 -0.089531645
0003a0 41 6c 60 3e ba 5e 03 bc 24 fa aa 3c eb d9 3c 3e
       0.21916296 -0.00801819 0.02087123 0.18442504
0003b0 9b e3 c6 3e d4 2f bf bd 6d 5a ab bd b6 7c cc bd
       0.38845524 -0.09335294 -0.08366857 -0.09984724
0003c0 ca cb df bd 7a 7d f6 3d bf d7 5d 3d 5e 72 86 be
       -0.109275416 0.120356515 0.05416083 -0.2625913
0003d0 c0 9d 57 3e 26 bd 87 be 9e 9a 3d be 8c e1 a0 bc
       0.2105627 -0.26511496 -0.18516013 -0.0196388
0003e0 10 40 7b bd 24 9c 4f bd 2c 4a 33 3d 38 e6 8f bd
       -0.06134039 -0.050686017 0.043771908 -0.070263326
0003f0 da 14 79 3e 00 37 d4 bb d0 c3 fd 3c a0 4b 5a be
       0.2432436 -0.006476283 0.03097716 -0.21317911

decoder.linear.bias f4 [22]
000000 85 35 07 3c a2 c5 09 bd dd 4b b5 3c 16 84 8b bd
       0.008252506 -0.033635743 0.022130901 -0.06812303
000010 d2 09 b7 3c e6 e2 5e 3e b3 b0 2c 3e f4 aa 0d be
       0.02234355 0.21766242 0.1686428 -0.13834745
000020 a4 bf 81 be ba a1 f4 3d 2d 0d 47 be c4 54 2f bb
       -0.25341523 0.119449094 -0.1943862 -0.0026753405
000030 c6 f6 1e bd b0 97 51 3c a4 37 90 3d 16 d3 8e be
       -0.03880956 0.012792513 0.070418626 -0.2789542
000040 ad 21 1f be 81 82 91 3e 44 69 03 bb a2 f8 2e 3e
       -0.1554019 0.2841988 -0.0020051757 0.17087033
000050 60 13 a2 3c f4 ef 9b be
       0.01978463 -0.30456507

decoder.pre_linear.weight f4 [20, 20]
000000 94 02 da bd be 84 1e be 0d c9 b7 3d 60 d0 89 be
       -0.10645023 -0.15480325 0.08973894 -0.2691679
000010 ca 97 19 be 9e cf 56 bd ba b2 03 3e ca d2 9d 3d
       -0.14999309 -0.052444093 0.12861148 0.077062204
000020 ce 58 8a bd 1a bd 19 3e ac f1 e9 3d 0d e6 8d 3d
       -0.067552194 0.15013543 0.114230484 0.06928644
000030 27 f1 c3 3c 65 9d 17 3e 61 0a ab 3d 78 07 55 be
       0.023918701 0.14806135 0.08351589 -0.2080363
000040 07 a0 c3 3d 83 dc 2d be 6e 07 21 3e 53 e5 22 bb
       0.09552007 -0.1697865 0.1572549 -0.0024855926
000050 0a b9 2e 3e 01 f7 fa 3d 73 48 56 3c 55 9c 91 3d
       0.17062774 0.122541435 0.013078797 0.07109896
000060 db d1 71 be 2f d7 04 3e 9c c3 9e bd 4e 5d 1a be
       -0.2361521 0.12972711 -0.07752153 -0.15074655
000070 d6 6f 46 be 8e dc da 3d af d6 e4 3d ae 41 4d be
       -0.193786 0.10686599 0.1117376 -0.20044586
000080 d1 01 54 be 50 00 85 be 0e c8 26 be 4f 12 a9 3d
       -0.20703818 -0.259768 -0.16287252 0.08255445
000090 b7 a4 37 bd 89 03 b6 bd 71 99 b2 3c 7a 99 60 3e
       -0.04483482 -0.08887393 0.021801682 0.21933547
0000a0 92 0d 36 bc e1 da 6a bd 1c fc eb be 16 b5 74 be
       -0.011111634 -0.057337645 -0.46090782 -0.23897204
0000b0 7e f2 51 be bf d6 77 bc 75 f0 fa 3e 40 f0 dc 3e
       -0.2050266 -0.015126883 0.4901158 0.43152046
0000c0 d2 eb cc 3e 7f 19 f2 bd 40 8e ca be 4e 66 ba 3e
       0.40023667 -0.11821269 -0.39561653 0.36406177
0000d0 ec db 6a 3d 58 2d bb be 42 83 e3 3e 88 fe 97 3d
       0.05733864 -0.36558032 0.4443608 0.07421595
0000e0 ea 1c 9a bd 49 10 de bd 74 e9 42 3e 33 3f 4a be
       -0.07525046 -0.1084295 0.19034368 -0.19750671
0000f0 51 f8 13 3e 17 ca 1c bf 5e e1 76 3d f3 ca 7c 3e
       0.14450194 -0.61245865 0.06027352 0.24686794
000100 8a 7d 56 be 50 81 0b bd c6 bc a4 be df fb 61 3e
       -0.20946327 -0.03405887 -0.32175273 0.22068737
000110 5b 46 11 3f a7 0f f4 bc 1d 17 1c bf 89 cf b2 bd
       0.5674798 -0.02979262 -0.6097277 -0.087309904
000120 fa e2 88 be 94 41 33 be ac de 94 b9 14 68 23 3d
       -0.2673567 -0.17505485 -0.00028394663 0.03989418
000130 9e 68 02 bf 00 26 a3 be c5 a2 9c 3d ac a2 16 3f
       -0.50940883 -0.3186493 0.07648233 0.5884197
000140 f4 be a2 be d1 92 46 3d 57 fa 55 be e7 cb 41 be
       -0.3178631 0.04847986 -0.20896278 -0.18925439
000150 f1 91 0e be fb 5b fd 3c 2e ab 6e be 88 3e 60 be
       -0.1392286 0.030927649 -0.23307487 -0.21898854
000160 ec 43 61 bc 4e 7d 6c bd f4 1d 9f 3c 8b 26 2e be
       -0.013749104 -0.057736687 0.019423462 -0.1700689
000170 62 e6 a1 3d 1e 03 19 be 46 30 d3 bd b4 f0 c2 bd
       0.0790527 -0.14942595 -0.10311942 -0.09518567
000180 f7 de 3b bc 62 c6 52 be 36 01 df bc c9 ea 72 3d
       -0.011466733 -0.2058349 -0.027222257 0.05930594
000190 00 59 0f be 44 64 3a 3f 4c c1 49 be e0 69 b6 3e
       -0.13998795 0.72809243 -0.19702643 0.3562765
0001a0 69 e4 e7 3c 23 4c af bd b4 84 ea 3e 6d 53 3e 3e
       0.028307157 -0.08559444 0.4580437 0.18586512
0001b0 a0 37 cd be 7a 2f d7 3d 09 01 79 3e 9e 6d cd be
       -0.400815 0.10507102 0.24316801 -0.40122694
0001c0 4a 95 13 3e 8c 4c 0e 3e dc fb 9b 3c a8 ab 12 be
       0.14412418 0.13896388 0.019040994 -0.14323294
0001d0 14 3f 28 be d3 e4 87 3e c2 bf c7 3e cc f2 10 be
       -0.16430312 0.26541767 0.39013487 -0.1415512
0001e0 e8 dd 98 bd c7 4b d9 3e 70 87 d2 3e eb 9c 6d be
       -0.074642 0.42440626 0.41118956 -0.2320439
0001f0 be c0 4c be 81 29 eb 3e 93 78 d9 3e 9b ab 0f bf
       -0.199954 0.45930102 0.42474803 -0.56121224
000200 9a 5c 50 bd 7a 72 c1 3d 1c e9 50 3e bf 1b 14 bb
       -0.05086956 0.09445663 0.20401424 -0.0022599546
000210 c9 3e 7f be 40 f6 03 3f b7 7d 1a be 5d 70 f4 bc
       -0.24926294 0.5154762 -0.15087019 -0.029838735
000220 a2 5c 95 3e a2 08 ad 3e 9d 96 22 be 39 03 46 be
       0.29172236 0.3379565 -0.15877767 -0.19337167
000230 a4 59 66 3e c3 19 9d 3d fb 88 33 3f 8f 03 57 bf
       0.22495133 0.07670929 0.7013089 -0.83989805
000240 da 9a 1c 3e 3f 04 d5 3e 57 83 f7 3e b5 78 a2 be
       0.15293446 0.41604802 0.48342392 -0.31732717
000250 cf bd 26 be 93 1f 72 be 90 03 d6 bd 93 32 bc be
       -0.16283344 -0.23644857 -0.10449898 -0.36757335
000260 2e bb 26 3e 4b d5 11 be f8 34 02 be 58 79 4b 3e
       0.16282341 -0.14241521 -0.12715518 0.19870508
000270 40 be 96 be 63 a0 51 3e 36 9b ba 3e 47 52 06 3d
       -0.29442024 0.20471339 0.36446542 0.03279331
000280 28 22 43 3e 76 14 e0 be 35 d3 7a 3c 3f 9a c0 be
       0.19055998 -0.4376561 0.015309145 -0.3761768
000290 0f e7 16 3e 36 07 31 3e ff 72 95 3e 42 da 73 bc
       0.1473658 0.17287907 0.29189298 -0.01488358
0002a0 3c 83 26 bf 7c 60 98 3c 44 cd 85 be e9 d8 bb bc
       -0.65044 0.018600695 -0.26133168 -0.02293058
0002b0 c6 fa 9f be 72 41 e2 3e d4 b7 70 bd 9a bc 92 bb
       -0.31246012 0.44190556 -0.058769062 -0.0044780495
0002c0 91 f4 0d be 0b f5 33 3e c5 d3 7c bd bc e9 1d 3f
       -0.13862826 0.17573945 -0.061725397 0.61684775
0002d0 9e 81 ac 3e 19 cc c8 bc 17 44 f0 3d 4f cb aa bd
       0.3369264 -0.024511384 0.11731737 -0.08339559
0002e0 94 92 89 be 53 7a b3 be 8e 04 9d bc 62 24 c5 3e
       -0.26869643 -0.35054263 -0.01916721 0.3850432
0002f0 a3 ea d2 3c 03 7f 0f be 2b 96 bc bb 10 80 03 bf
       0.02574665 -0.14013295 -0.005755206 -0.5136728
000300 02 10 8f 3e 6e 30 5c 3e c4 6b 13 be f5 ac be 3d
       0.279419 0.2150285 -0.14396578 0.09310333
000310 69 d6 77 3f da 44 c4 bd 1d fa 20 bf 60 79 25 bf
       0.9681154 -0.09583445 -0.6288164 -0.6463833
000320 26 29 ba 3d 84 4f 5b be 70 62 74 be 48 ce a9 3c
       0.0908988 -0.21417052 -0.23865676 0.020728245
000330 29 63 19 3f 39 6e 2b be b5 49 20 be 23 7a 36 3e
       0.5991693 -0.16741265 -0.15653117 0.17820029
000340 fb 07 11 be b2 8c da 3d 78 4f 4e be 42 06 c8 bd
       -0.141632 0.10671367 -0.20147502 -0.097668186
000350 a4 fd 5c 3d d4 6f 96 bd fc 1c f0 bb 3e 92 c9 3c
       0.053952828 -0.07345548 -0.007327674 0.024605867
000360 23 6d 99 3e 4c aa 23 3f 0b 2f 6f be d1 ac 76 3d
       0.29966077 0.6393173 -0.23357789 0.060223404
000370 05 1f 48 bf 47 a2 98 3e f5 ef fa be ac b4 e4 3e
       -0.7817233 0.29811308 -0.49011198 0.44669092
000380 1d 12 14 3e 8b f7 06 be 34 b2 cf 3d 53 e2 f3 be
       0.14460035 -0.13180368 0.101414114 -0.4763361
000390 cb e9 6d 3c eb 3c fa bd 30 33 0b ba d0 72 54 3d
       0.014521073 -0.122186504 -0.0005310057 0.051867306
0003a0 0b 95 31 be f9 18 b8 be 7a d4 28 be 5c 2f 1f be
       -0.17342012 -0.35956553 -0.16487303 -0.1554541
0003b0 ab 12 e6 3d 2b ac b3 be 6f 47 c9 3e a8 ac 6c bd
       0.112340294 -0.3509229 0.39312312 -0.057781845
0003c0 73 66 c2 be 72 99 76 be e9 1b 61 be e3 1b e8 3b
       -0.37968788 -0.24081972 -0.21983303 0.0070834025
0003d0 ba 69 08 3d c2 e7 4d 3e 8f 52 9f bd bd a8 68 be
       0.033303954 0.2010794 -0.07779419 -0.22720619
0003e0 90 88 10 3b b0 a4 56 be 4a b6 f5 bd 7a 59 5b be
       0.0022054054 -0.20961261 -0.119976595 -0.21420851
0003f0 c3 51 4e be 68 01 37 3e ae 9d cc bd de d0 00 3e
       -0.20148377 0.1787163 -0.099910125 0.12579677

decoder.pre_linear.bias f4 [20]
000000 67 dd 66 be 16 67 07 be ee 50 3b 3e 5b 99 32 3c
       -0.22545396 -0.13222918 0.18292591 0.010900821
000010 b0 84 0a be d3 2a f4 3d cb d4 08 be fb 33 1a 3e
       -0.13527179 0.119222306 -0.13362424 0.15058891
000020 42 72 d1 bd 9d 27 2f 3c fe 42 80 3e 2a 0d 93 3e
       -0.10226871 0.010690597 0.2505111 0.2872098
000030 cd 33 96 bd d3 d1 85 3e 7c bd 77 3e dd f7 18 be
       -0.07334099 0.26136646 0.24193376 -0.14938302
000040 1a 6d fe 3d 6b 6f 57 bd f0 b5 66 be 81 09 87 3e
       0.12423153 -0.05259649 -0.22530341 0.26374438
